…
:25:19,877: INFO: 01_base_model_creation]: 
********************
[2021-11-23 15:25:19,877: INFO: 01_base_model_creation]: >>>>> stage Creating base model started <<<<<
[2021-11-23 15:25:19,877: INFO: common]: yaml file: configs/config.yaml loaded successfully
[2021-11-23 15:25:20,725: INFO: 01_base_model_creation]: Creating base model model summary: 
Model: "sequential"
_________________________________________________________________
 Layer (type)                Output Shape              Param #   
=================================================================
 inputlayer (Flatten)        (None, 784)               0         
                                                                 
 hiddenlayer1 (Dense)        (None, 300)               235500    
                                                                 
 leaky_re_lu (LeakyReLU)     (None, 300)               0         
                                                                 
 hiddenlayer2 (Dense)        (None, 100)               30100     
                                                                 
 leaky_re_lu_1 (LeakyReLU)   (None, 100)               0         
                                                                 
 outputlayer (Dense)         (None, 10)                1010      
                                                                 
=================================================================
Total params: 266,610
Trainable params: 266,610
Non-trainable params: 0
_________________________________________________________________

[2021-11-23 15:26:43,297: INFO: common]: created directory at: artifacts\models
[2021-11-23 15:26:43,392: INFO: 01_base_model_creation]: base model is saved at artifacts\models\base_model.h5
…
AttributeError: module 'keras.api._v2.keras' has no attribute 'layersDense'
[2021-11-23 15:53:02,502: INFO: 02_transfer_learning]: 
********************
[2021-11-23 15:53:02,502: INFO: 02_transfer_learning]: >>>>> stage Transfer Learning started <<<<<
[2021-11-23 15:53:02,504: INFO: common]: yaml file: configs/config.yaml loaded successfully
[2021-11-23 15:53:03,207: INFO: 02_transfer_learning]: loaded base model summary: 
Model: "sequential"
_________________________________________________________________
 Layer (type)                Output Shape              Param #   
=================================================================
 inputlayer (Flatten)        (None, 784)               0         
                                                                 
 hiddenlayer1 (Dense)        (None, 300)               235500    
                                                                 
 leaky_re_lu (LeakyReLU)     (None, 300)               0         
                                                                 
 hiddenlayer2 (Dense)        (None, 100)               30100     
                                                                 
 leaky_re_lu_1 (LeakyReLU)   (None, 100)               0         
                                                                 
 outputlayer (Dense)         (None, 10)                1010      
                                                                 
=================================================================
Total params: 266,610
Trainable params: 266,610
Non-trainable params: 0
_________________________________________________________________

[2021-11-23 15:53:03,253: INFO: 02_transfer_learning]: Transfer Learning model summary: 
Model: "sequential"
_________________________________________________________________
 Layer (type)                Output Shape              Param #   
=================================================================
 inputlayer (Flatten)        (None, 784)               0         
                                                                 
 hiddenlayer1 (Dense)        (None, 300)               235500    
                                                                 
 leaky_re_lu (LeakyReLU)     (None, 300)               0         
                                                                 
 hiddenlayer2 (Dense)        (None, 100)               30100     
                                                                 
 leaky_re_lu_1 (LeakyReLU)   (None, 100)               0         
                                                                 
 output_layer (Dense)        (None, 2)                 202       
                                                                 
=================================================================
Total params: 265,802
Trainable params: 202
Non-trainable params: 265,600
_________________________________________________________________

[2021-11-23 15:53:03,295: INFO: 02_transfer_learning]: >>>>> stage Transfer Learning completed!<<<<<

[2021-11-23 15:53:40,328: INFO: 02_transfer_learning]: 
…
